gp-models/ski_full_model.pth (torch_old, 55012 bytes, 5 tensors)

likelihood.noise_covar.raw_noise f8 [1]
3.765067979215024
00000000: 0c90 eff5 db1e 0e40

mean_module.constant f8 [1]
51.23780844621035
00000000: d097 d581 709e 4940

covar_module.base_kernel.grid_0 f4 [13301]
73.587845 73.59188 73.595924 73.59996 73.604004 73.60804 73.61208 73.61612
73.62016 73.6242 73.62824 73.63228 73.636314 73.64036 73.644394 73.64844
73.65247 73.65652 73.66055 73.6646 73.66863 73.672676 73.67671 73.68075
73.68479 73.68883 73.69287 73.69691 73.70095 73.70499 73.70903 73.713066
73.71711 73.721146 73.72518 73.729225 73.73326 73.737305 73.74134 73.745384
73.74942 73.75346 73.7575 73.76154 73.76558 73.769615 73.77366 73.777695
73.78174 73.785774 73.78982 73.79385 73.7979 73.80193 73.80598 73.81001
73.81405 73.81809 73.82213 73.82617 73.83021 73.83425 73.83829 73.84233
73.84637 73.85041 73.85445 73.85848 73.862526 73.86656 73.870605 73.87464
73.878685 73.88272 73.886765 73.8908 73.894844 73.89888 73.90292 73.90696
73.910995 73.91504 73.919075 73.92312 73.927155 73.9312 73.935234 73.93928
73.94331 73.94736 73.95139 73.95543 73.95947 73.96351 73.96755 73.97159
73.97563 73.97967 73.98371 73.98775 73.99179 73.99583 73.99986 74.00391
74.00794 74.011986 74.01602 74.020065 74.0241 74.028145 74.03218 74.036224
74.04026 74.0443 74.04834 74.052376 74.05642 74.060455 74.0645 74.068535
74.07258 74.076614 74.08066 74.084694 74.08873 74.09277 74.09681 74.10085
74.10489 74.10893 74.11297 74.11701 74.12105 74.12509 74.12913 74.13316
74.13721 74.14124 74.14529 74.14932 74.153366 74.1574 74.161446 74.16548
74.169525 74.17356 74.1776 74.18164 74.18568 74.18972 74.193756 74.1978
74.201836 74.20588 74.209915 74.21396 74.217995 74.22203 74.226074 74.23011
74.23415 74.23819 74.24223 74.24627 74.25031 74.25435 74.25839 74.26243
74.266464 74.27051 74.27454 74.27859 74.28262 74.28667 74.2907 74.29475
74.29878 74.302826 74.30686 74.3109 74.31494 74.31898 74.32302 74.32706
74.3311 74.33514 74.33918 74.343216 74.34726 74.351295 74.35533 74.359375
74.36341 74.367455 74.37149 74.375534 74.37957 74.38361 74.38765 74.39169
74.39573 74.399765 74.40381 74.407845 74.41189 74.415924 74.41997 74.424
74.42805 74.43208 74.43613 74.44016 74.4442 74.44824 74.45228 74.45632
74.46036 74.4644 74.46844 74.47248 74.47652 74.48056 74.4846 74.48863
74.492676 74.49671 74.500755 74.50479 74.508835 74.51287 74.516914 74.52095
74.524994 74.52903 74.533066 74.53711 74.541145 74.54519 74.549225 74.55327
74.557304 74.56135 74.565384 74.56943 74.57346 74.57751 74.58154 74.58558
74.58962 74.59366 74.5977 74.60174 74.60578 74.60982 74.61386 74.6179
00000000: fa2c 9342 0b2f 9342 1d31 9342 2e33 9342
00000010: 4035 9342 5137 9342 6339 9342 743b 9342
00000020: 863d 9342 973f 9342 a941 9342 ba43 9342
00000030: cb45 9342 dd47 9342 ee49 9342 004c 9342
00000040: 114e 9342 2350 9342 3452 9342 4654 9342
00000050: 5756 9342 6958 9342 7a5a 9342 8b5c 9342
00000060: 9d5e 9342 ae60 9342 c062 9342 d164 9342
00000070: e366 9342 f468 9342 066b 9342 176d 9342
00000080: 296f 9342 3a71 9342 4b73 9342 5d75 9342
00000090: 6e77 9342 8079 9342 917b 9342 a37d 9342
000000a0: b47f 9342 c681 9342 d783 9342 e985 9342
000000b0: fa87 9342 0b8a 9342 1d8c 9342 2e8e 9342
000000c0: 4090 9342 5192 9342 6394 9342 7496 9342
000000d0: 8698 9342 979a 9342 a99c 9342 ba9e 9342
000000e0: cba0 9342 dda2 9342 eea4 9342 00a7 9342
000000f0: 11a9 9342 23ab 9342 34ad 9342 46af 9342
00000100: 57b1 9342 69b3 9342 7ab5 9342 8bb7 9342
00000110: 9db9 9342 aebb 9342 c0bd 9342 d1bf 9342
00000120: e3c1 9342 f4c3 9342 06c6 9342 17c8 9342
00000130: 29ca 9342 3acc 9342 4cce 9342 5dd0 9342
00000140: 6ed2 9342 80d4 9342 91d6 9342 a3d8 9342
00000150: b4da 9342 c6dc 9342 d7de 9342 e9e0 9342
00000160: fae2 9342 0ce5 9342 1de7 9342 2ee9 9342
00000170: 40eb 9342 51ed 9342 63ef 9342 74f1 9342
00000180: 86f3 9342 97f5 9342 a9f7 9342 baf9 9342
00000190: ccfb 9342 ddfd 9342 eeff 9342 0002 9442
000001a0: 1104 9442 2306 9442 3408 9442 460a 9442
000001b0: 570c 9442 690e 9442 7a10 9442 8c12 9442
000001c0: 9d14 9442 ae16 9442 c018 9442 d11a 9442
000001d0: e31c 9442 f41e 9442 0621 9442 1723 9442
000001e0: 2925 9442 3a27 9442 4c29 9442 5d2b 9442
000001f0: 6e2d 9442 802f 9442 9131 9442 a333 9442
00000200: b435 9442 c637 9442 d739 9442 e93b 9442
00000210: fa3d 9442 0c40 9442 1d42 9442 2e44 9442
00000220: 4046 9442 5148 9442 634a 9442 744c 9442
00000230: 864e 9442 9750 9442 a952 9442 ba54 9442
00000240: cc56 9442 dd58 9442 ee5a 9442 005d 9442
00000250: 115f 9442 2361 9442 3463 9442 4665 9442
00000260: 5767 9442 6969 9442 7a6b 9442 8c6d 9442
00000270: 9d6f 9442 ae71 9442 c073 9442 d175 9442
00000280: e377 9442 f479 9442 067c 9442 177e 9442
00000290: 2980 9442 3a82 9442 4c84 9442 5d86 9442
000002a0: 6e88 9442 808a 9442 918c 9442 a38e 9442
000002b0: b490 9442 c692 9442 d794 9442 e996 9442
000002c0: fa98 9442 0c9b 9442 1d9d 9442 2e9f 9442
000002d0: 40a1 9442 51a3 9442 63a5 9442 74a7 9442
000002e0: 86a9 9442 97ab 9442 a9ad 9442 baaf 9442
000002f0: ccb1 9442 ddb3 9442 eeb5 9442 00b8 9442
00000300: 11ba 9442 23bc 9442 34be 9442 46c0 9442
00000310: 57c2 9442 69c4 9442 7ac6 9442 8cc8 9442
00000320: 9dca 9442 aecc 9442 c0ce 9442 d1d0 9442
00000330: e3d2 9442 f4d4 9442 06d7 9442 17d9 9442
00000340: 29db 9442 3add 9442 4cdf 9442 5de1 9442
00000350: 6ee3 9442 80e5 9442 91e7 9442 a3e9 9442
00000360: b4eb 9442 c6ed 9442 d7ef 9442 e9f1 9442
00000370: faf3 9442 0cf6 9442 1df8 9442 2efa 9442
00000380: 40fc 9442 51fe 9442 6300 9542 7402 9542
00000390: 8604 9542 9706 9542 a908 9542 ba0a 9542
000003a0: cc0c 9542 dd0e 9542 ee10 9542 0013 9542
000003b0: 1115 9542 2317 9542 3419 9542 461b 9542
000003c0: 571d 9542 691f 9542 7a21 9542 8c23 9542
000003d0: 9d25 9542 af27 9542 c029 9542 d12b 9542
000003e0: e32d 9542 f42f 9542 0632 9542 1734 9542
000003f0: 2936 9542 3a38 9542 4c3a 9542 5d3c 9542

covar_module.base_kernel.base_kernel.raw_outputscale f8 []
5.058391148221076
00000000: 0ff1 9fe3 ca3b 1440

covar_module.base_kernel.base_kernel.base_kernel.raw_lengthscale f8 [1, 1]
-3.556432010066056
00000000: 3573 2da0 9273 0cc0
