gp-models/ski_full_model_cuda_100.pth (torch_old, 5866 bytes, 5 tensors)

likelihood.noise_covar.raw_noise f8 [1]
3.7781927915277347
00000000: acc1 6c24 bd39 0e40

mean_module.constant f8 [1]
51.37358394952937
00000000: 03c5 4e99 d1af 4940

covar_module.base_kernel.grid_0 f4 [1000]
73.4376 73.49168 73.54575 73.59984 73.653915 73.70799 73.76207 73.816154
73.87023 73.92431 73.978386 74.03246 74.08655 74.140625 74.1947 74.24878
74.302864 74.35694 74.41102 74.465096 74.51918 74.57326 74.627335 74.68141
74.73549 74.78957 74.84365 74.89773 74.951805 75.00589 75.05997 75.114044
75.16812 75.2222 75.27628 75.33036 75.38444 75.438515 75.4926 75.54668
75.60075 75.65483 75.70891 75.76299 75.81707 75.87115 75.925224 75.97931
76.03339 76.08746 76.14154 76.195625 76.2497 76.30378 76.35786 76.411934
76.46602 76.520096 76.57417 76.62825 76.682335 76.73641 76.79049 76.84457
76.89864 76.95273 77.006805 77.06088 77.11496 77.169044 77.22312 77.2772
77.331276 77.38536 77.43944 77.493515 77.54759 77.60167 77.655754 77.70983
77.76391 77.817986 77.87207 77.92615 77.980225 78.0343 78.08838 78.14246
78.19654 78.25062 78.304695 78.35878 78.41286 78.466934 78.52101 78.57509
78.62917 78.68325 78.73733 78.791405 78.84549 78.89957 78.95364 79.00772
79.061806 79.11588 79.16996 79.22404 79.278114 79.3322 79.38628 79.44035
79.49443 79.548515 79.60259 79.65667 79.71075 79.764824 79.81891 79.872986
79.92706 79.98114 80.035225 80.0893 80.14338 80.19746 80.25153 80.30562
80.359695 80.41377 80.46785 80.521935 80.57601 80.63009 80.684166 80.73825
80.79233 80.846405 80.90048 80.95456 81.008644 81.06272 81.1168 81.170876
81.22496 81.27904 81.333115 81.38719 81.44127 81.49535 81.54943 81.60351
81.657585 81.71167 81.76575 81.819824 81.8739 81.92798 81.98206 82.03614
82.09022 82.144295 82.19838 82.25246 82.30653 82.36061 82.414696 82.46877
82.52285 82.57693 82.631004 82.68509 82.73917 82.79324 82.84732 82.901405
82.95548 83.00956 83.06364 83.117714 83.1718 83.225876 83.27995 83.33403
83.388115 83.44219 83.49627 83.55035 83.60443 83.65851 83.712585 83.76666
83.82074 83.874825 83.9289 83.98298 84.037056 84.09114 84.14522 84.199295
84.25337 84.30745 84.361534 84.41561 84.46969 84.523766 84.57785 84.63193
84.686005 84.74008 84.79416 84.84824 84.90232 84.9564 85.010475 85.06456
85.11864 85.172714 85.22679 85.280876 85.33495 85.38903 85.44311 85.497185
85.55127 85.60535 85.659424 85.7135 85.767586 85.82166 85.87574 85.92982
85.983894 86.03798 86.09206 86.14613 86.20021 86.254295 86.30837 86.36245
86.41653 86.470604 86.52469 86.578766 86.63284 86.68692 86.741005 86.79508
86.84916 86.90324 86.95732 87.0114 87.065475 87.11955 87.17363 87.227715
00000000: 0de0 9242 bdfb 9242 6d17 9342 1e33 9342
00000010: ce4e 9342 7e6a 9342 2e86 9342 dfa1 9342
00000020: 8fbd 9342 3fd9 9342 eff4 9342 9f10 9442
00000030: 502c 9442 0048 9442 b063 9442 607f 9442
00000040: 119b 9442 c1b6 9442 71d2 9442 21ee 9442
00000050: d209 9542 8225 9542 3241 9542 e25c 9542
00000060: 9278 9542 4394 9542 f3af 9542 a3cb 9542
00000070: 53e7 9542 0403 9642 b41e 9642 643a 9642
00000080: 1456 9642 c471 9642 758d 9642 25a9 9642
00000090: d5c4 9642 85e0 9642 36fc 9642 e617 9742
000000a0: 9633 9742 464f 9742 f66a 9742 a786 9742
000000b0: 57a2 9742 07be 9742 b7d9 9742 68f5 9742
000000c0: 1811 9842 c82c 9842 7848 9842 2964 9842
000000d0: d97f 9842 899b 9842 39b7 9842 e9d2 9842
000000e0: 9aee 9842 4a0a 9942 fa25 9942 aa41 9942
000000f0: 5b5d 9942 0b79 9942 bb94 9942 6bb0 9942
00000100: 1bcc 9942 cce7 9942 7c03 9a42 2c1f 9a42
00000110: dc3a 9a42 8d56 9a42 3d72 9a42 ed8d 9a42
00000120: 9da9 9a42 4ec5 9a42 fee0 9a42 aefc 9a42
00000130: 5e18 9b42 0e34 9b42 bf4f 9b42 6f6b 9b42
00000140: 1f87 9b42 cfa2 9b42 80be 9b42 30da 9b42
00000150: e0f5 9b42 9011 9c42 402d 9c42 f148 9c42
00000160: a164 9c42 5180 9c42 019c 9c42 b2b7 9c42
00000170: 62d3 9c42 12ef 9c42 c20a 9d42 7226 9d42
00000180: 2342 9d42 d35d 9d42 8379 9d42 3395 9d42
00000190: e4b0 9d42 94cc 9d42 44e8 9d42 f403 9e42
000001a0: a51f 9e42 553b 9e42 0557 9e42 b572 9e42
000001b0: 658e 9e42 16aa 9e42 c6c5 9e42 76e1 9e42
000001c0: 26fd 9e42 d718 9f42 8734 9f42 3750 9f42
000001d0: e76b 9f42 9787 9f42 48a3 9f42 f8be 9f42
000001e0: a8da 9f42 58f6 9f42 0912 a042 b92d a042
000001f0: 6949 a042 1965 a042 c980 a042 7a9c a042
00000200: 2ab8 a042 dad3 a042 8aef a042 3b0b a142
00000210: eb26 a142 9b42 a142 4b5e a142 fc79 a142
00000220: ac95 a142 5cb1 a142 0ccd a142 bce8 a142
00000230: 6d04 a242 1d20 a242 cd3b a242 7d57 a242
00000240: 2e73 a242 de8e a242 8eaa a242 3ec6 a242
00000250: eee1 a242 9ffd a242 4f19 a342 ff34 a342
00000260: af50 a342 606c a342 1088 a342 c0a3 a342
00000270: 70bf a342 20db a342 d1f6 a342 8112 a442
00000280: 312e a442 e149 a442 9265 a442 4281 a442
00000290: f29c a442 a2b8 a442 53d4 a442 03f0 a442
000002a0: b30b a542 6327 a542 1343 a542 c45e a542
000002b0: 747a a542 2496 a542 d4b1 a542 85cd a542
000002c0: 35e9 a542 e504 a642 9520 a642 453c a642
000002d0: f657 a642 a673 a642 568f a642 06ab a642
000002e0: b7c6 a642 67e2 a642 17fe a642 c719 a742
000002f0: 7835 a742 2851 a742 d86c a742 8888 a742
00000300: 38a4 a742 e9bf a742 99db a742 49f7 a742
00000310: f912 a842 aa2e a842 5a4a a842 0a66 a842
00000320: ba81 a842 6a9d a842 1bb9 a842 cbd4 a842
00000330: 7bf0 a842 2b0c a942 dc27 a942 8c43 a942
00000340: 3c5f a942 ec7a a942 9c96 a942 4db2 a942
00000350: fdcd a942 ade9 a942 5d05 aa42 0e21 aa42
00000360: be3c aa42 6e58 aa42 1e74 aa42 cf8f aa42
00000370: 7fab aa42 2fc7 aa42 dfe2 aa42 8ffe aa42
00000380: 401a ab42 f035 ab42 a051 ab42 506d ab42
00000390: 0189 ab42 b1a4 ab42 61c0 ab42 11dc ab42
000003a0: c1f7 ab42 7213 ac42 222f ac42 d24a ac42
000003b0: 8266 ac42 3382 ac42 e39d ac42 93b9 ac42
000003c0: 43d5 ac42 f3f0 ac42 a40c ad42 5428 ad42
000003d0: 0444 ad42 b45f ad42 657b ad42 1597 ad42
000003e0: c5b2 ad42 75ce ad42 26ea ad42 d605 ae42
000003f0: 8621 ae42 363d ae42 e658 ae42 9774 ae42

covar_module.base_kernel.base_kernel.raw_outputscale f8 []
5.056859926794365
00000000: 9623 187d 393a 1440

covar_module.base_kernel.base_kernel.base_kernel.raw_lengthscale f8 [1, 1]
-3.3825128131970295
00000000: 8bdb b7e0 620f 0bc0
